rl_models/model-60.pth (torch, 42711 bytes, 6 tensors)

weight f4 [64, 14]
0	0xbdbfe869	-0.093705006
1	0x3dc838ea	0.097764805
2	0x3d497f6c	0.049193785
3	0xbc06fb8b	-0.008238683
4	0x3e400822	0.18753102
5	0x3db301d9	0.08740587
6	0xbe28a3c5	-0.16468723
7	0x3d6796a1	0.056540135
8	0x3d909b57	0.07060879
9	0x3e3688f5	0.17825682
10	0xbcd851bb	-0.02640616
11	0x3e68aa44	0.22721201
12	0xbe6c9e4f	-0.23107265
13	0xbe373f18	-0.17895162
14	0xbe1cc3db	-0.15309088
15	0x3dbb2fca	0.091399744
16	0x3e39ae28	0.18132842
17	0x3e67b19b	0.22626345
18	0xbd7ca697	-0.06168231
19	0xbe872e04	-0.26402295
20	0xbc959430	-0.018259138
21	0xbd41f8df	-0.047356483
22	0xbdf6e52e	-0.12055431
23	0x3e2f83be	0.171401
24	0xbe4f887c	-0.20266908
25	0x3e525be3	0.20542865
26	0x3db94358	0.09046048
27	0x3d22ce1f	0.039747354
28	0x3d511c20	0.051052213
29	0x3e3f7dcf	0.18700336
30	0xbcc0853e	-0.023501035
31	0xbc4558cb	-0.012045096
32	0xba070016	-0.0005149854
33	0xbcf6e458	-0.03013818
34	0x3e2da0a7	0.16955815
35	0xbe1b38d6	-0.151584
36	0xbc87e1fd	-0.016587252
37	0xbc121d9e	-0.008918194
38	0x3e5fc5f1	0.21852852
39	0x3e533194	0.20624381
40	0x3dd71a0a	0.105030134
41	0x3d591c95	0.053005774
42	0xbe5b8219	-0.21436347
43	0x3cb583d8	0.022157595
44	0x3e184dfb	0.14873497
45	0x3d9f3d4a	0.07775362
46	0xbe76cf05	-0.24102409
47	0x3d9b430b	0.07581147
48	0x3da42fe0	0.08016944
49	0xbdaab1aa	-0.08334668
50	0x3e03994c	0.12851447
51	0x3d1af66c	0.037832662
52	0xbe407dfc	-0.18798059
53	0x3e1beafb	0.15226357
54	0xbe84e7c4	-0.25958073
55	0x3dd9e027	0.10638457
56	0xbe72cd95	-0.23711236
57	0x3db408e2	0.08790757
58	0x3dca88cc	0.09889373
59	0xbe8794b1	-0.2648063
60	0x3e372a39	0.178872
61	0xbd315d03	-0.043301594
62	0xbdea247b	-0.11432739
63	0xbe0e218e	-0.13879988
64	0xbe257ec1	-0.16161634
65	0x3b1a765e	0.0023569087
66	0xbe3505ff	-0.17678069
67	0xbb735294	-0.0037128078
68	0x3d8ae0be	0.067811474
69	0x3e6b838e	0.22999403
70	0x3d0a083f	0.03369927
71	0xbe0bfeac	-0.13671368
72	0x3e7d92ee	0.2476308
73	0xbd98dc17	-0.07463854
74	0x3bcfc699	0.0063408134
75	0x3df34bee	0.11879717
76	0x3de1de78	0.11028761
77	0x3e373633	0.17891769
78	0x3da9549a	0.082680896
79	0xbe37f3d0	-0.17964101
80	0x3d39cb25	0.04535975
81	0x3d7e4c90	0.062084734
82	0xbe362f3b	-0.17791454
83	0x3e4d3dff	0.20043181
84	0x3de377a1	0.11106802
85	0x3e87d1d9	0.2652729
86	0x3e5ccc91	0.21562411
87	0xbd4233ab	-0.047412556
88	0x3e7a82e3	0.24463992
89	0x3e00a74e	0.12563822
90	0xbe41f8d6	-0.1894258
91	0x3c3a4415	0.011368771
92	0x3b8134c9	0.00394306
93	0x3bd991c7	0.0066396925
94	0xbd3f2cc7	-0.046673562
95	0xbe45c2a9	-0.19312538
96	0xbdf9d775	-0.12199298
97	0xbdf3c98f	-0.119036786
98	0x3e3c1c7c	0.18370241
99	0x3d25671a	0.04038153
100	0x3dd9a793	0.10627665
101	0x3e1f99c7	0.15586005
102	0xbe12d034	-0.14337236
103	0x3e557c0f	0.20848106
104	0xbe6b37f0	-0.22970557
105	0xbe68d7bc	-0.22738546
106	0x3da1ea6a	0.07906039
107	0x3e3e145f	0.18562458
108	0x3bbd0cbc	0.0057693403
109	0x3c24d044	0.01005942
110	0xbe4a00a5	-0.19726808
111	0xbdd90bfb	-0.10597988
112	0x3dc4cfb0	0.09609926
113	0x3e4b0fce	0.19830248
114	0xbd477f51	-0.048705403
115	0xbe17ec6a	-0.14836279
116	0x3e0795bc	0.13240713
117	0xbe51bc04	-0.20481879
118	0xbe30487d	-0.17215152
119	0x3b958c1a	0.0045638205
120	0x3e5c1f50	0.2149632
121	0xbcf2e220	-0.02964884
122	0x3e0b888f	0.13626312
123	0x3e366ec2	0.17815688
124	0xbe2d00f2	-0.16894892
125	0xbe0f3022	-0.13983205
126	0x3e6454ac	0.22297925
127	0xbe56f429	-0.20991577
128	0x3e78081a	0.2422184
129	0x3d2eb455	0.042652447
130	0xbda2eea0	-0.0795567
131	0xbe21795f	-0.15768956
132	0x3e648e46	0.22319898
133	0x3de404be	0.11133717
134	0xbc700f1e	-0.014652042
135	0xbd054c0c	-0.032543227
136	0x3e2c28df	0.16812466
137	0x3e80d6d4	0.251639
138	0xbdbc9480	-0.092080116
139	0x3e661049	0.2246715
140	0xbd35fc2d	-0.044429947
141	0x3d095358	0.03352675
142	0x3d199eb9	0.037504885
143	0xbca501c6	-0.020142447
144	0x3d9a37b7	0.07530158
145	0xbe0fe0c0	-0.14050579
146	0xbd879a58	-0.066212356
147	0x3dccbcef	0.09996974
148	0x3d4eb6c3	0.050467264
149	0xbe7230e4	-0.23651463
150	0x3a0a5dbc	0.000527825
151	0xbd18a388	-0.03726533
152	0xbcbda244	-0.023148663
153	0xbe16b4ec	-0.14717454
154	0xbe34fb8c	-0.17674083
155	0xbe31c1c1	-0.17359067
156	0x3dd69607	0.10477834
157	0xbe017a8a	-0.12644401
158	0x3e72b5a9	0.2370211
159	0x3e5f5be4	0.21812397
160	0xbe0a81f9	-0.13526143
161	0x3e58c3bc	0.21168417
162	0xbe5ccf8a	-0.21563545
163	0x3d8ad533	0.06778946
164	0x3d02f146	0.031968378
165	0x3d78bfde	0.060729854
166	0xbd857c1b	-0.06517812
167	0xbe0fec9a	-0.140551
168	0x3dc24cfe	0.09487341
169	0x3cffa364	0.03120584
170	0xbd084524	-0.033269063
171	0xbcbffeae	-0.02343687
172	0xbe55e0b5	-0.208865
173	0x3dd69c2d	0.10479007
174	0xbda1ca60	-0.07899928
175	0xbd632105	-0.05545141
176	0xbda22f04	-0.07919124
177	0xbe5f57c2	-0.2181082
178	0x3e48b307	0.19599544
179	0xbe5650db	-0.20929281
180	0x3d037567	0.032094385
181	0xbe80be6d	-0.25145283
182	0x3e2fd03b	0.17169277
183	0x3e19c07f	0.15014838
184	0xbe3c78e8	-0.18405497
185	0x3e669d3b	0.22520916
186	0x3dbc0a2d	0.091816284
187	0x3a1a35b1	0.00058826344
188	0xbe32b753	-0.17452745
189	0x3d9c6ac0	0.076375484
190	0xbe62bd42	-0.22142509
191	0xbe02089d	-0.12698598
192	0x3e69bc95	0.22825845
193	0x3e4b1be4	0.19834858
194	0xbdcae26a	-0.09906466
195	0x3e3a3255	0.18183263
196	0xbd04578a	-0.032310046
197	0x3c64e590	0.013970748
198	0xbe4f676c	-0.20254296
199	0x3ccf242c	0.025285803
200	0x3e80c8c5	0.25153175
201	0xbda1d1b5	-0.079013266
202	0xbe816260	-0.25270367
203	0xbe65cd96	-0.22441706
204	0x3e842b4a	0.25814277
205	0xbe1892de	-0.14899775
206	0xbe86ac3a	-0.26303273
207	0xbe856393	-0.26052532
208	0xbe54e877	-0.20791803
209	0xbdbe94ca	-0.09305723
210	0xbe4b62f1	-0.19861962
211	0x3dcaad94	0.09896389
212	0x3d5c86ba	0.053839423
213	0x3e71db73	0.2361887
214	0xbe1584ff	-0.14601515
215	0x3d8e62f5	0.06952468
216	0x3e384169	0.17993702
217	0xbe0c469b	-0.13698809
218	0xbe813ed5	-0.2524325
219	0xbe36f5b3	-0.17867164
220	0xbe19b62d	-0.15010901
221	0x3e4230c7	0.1896392
222	0x3da60d56	0.081080124
223	0x3da9c9c8	0.0829044
224	0x3e84585c	0.25848663
225	0x3c5d4426	0.013505017
226	0x3e3ec434	0.18629533
227	0x3db4cdf9	0.08828349
228	0x3e5a3479	0.21309079
229	0x3e21a444	0.15785319
230	0xbd327a0c	-0.043573424
231	0x3d18e840	0.037330866
232	0xbe1821a9	-0.1485659
233	0xbe47505b	-0.19464247
234	0xbde7b1a3	-0.113131784
235	0xbe6b37c5	-0.22970493
236	0xbe199223	-0.14997153
237	0xbdb40a0d	-0.087909795
238	0x3e425b7b	0.1898021
239	0xbe627cfd	-0.22117992
240	0x3e599734	0.21249086
241	0xbdceb31a	-0.10092755
242	0xbd4f9fea	-0.050689615
243	0x3d789d4a	0.060696878
244	0xbc716ad3	-0.014734942
245	0xbd6c704a	-0.057724275
246	0xbe2cbde1	-0.16869308
247	0x3d350e1d	0.044202913
248	0x3e7d00cc	0.24707335
249	0xbde48260	-0.111576796
250	0x3e466761	0.19375373
251	0x3e807f2c	0.25097024
252	0x3e1933f6	0.14961228
253	0x3d7ec306	0.062197708
254	0xbe42889e	-0.18997428
255	0x3d144761	0.036200885

bias f4 [64]
0	0x3dab690e	0.08369647
1	0x3d8b0b79	0.067892976
2	0x3e75d640	0.24007511
3	0xbc6c69b5	-0.014429499
4	0x3e3cbc7f	0.1843128
5	0x3e16ffbd	0.14745994
6	0x3e462ecb	0.19353788
7	0xbdd04487	-0.101693206
8	0xbbb054f5	-0.0053812214
9	0x3d9827c1	0.074294575
10	0x3d84cb0b	0.0648404
11	0x3d57c55a	0.052678443
12	0x3e856170	0.260509
13	0xbe327ba8	-0.17429984
14	0x3dc96009	0.098327704
15	0xbe6a7b73	-0.22898655
16	0x3e3028cd	0.17203064
17	0xbe779c25	-0.24180658
18	0x3e2cdeb4	0.1688183
19	0x3dd41793	0.10356059
20	0x3e4cc77e	0.19997975
21	0x3e20c9c3	0.15701966
22	0xbd60088f	-0.054695662
23	0x3e82c399	0.25539854
24	0x3d9c8d24	0.07644108
25	0x3e79ec4b	0.24406545
26	0xbe7d2ff6	-0.24725327
27	0xbd061f16	-0.03274449
28	0x3dd4425a	0.10364218
29	0xbcd5baec	-0.026090108
30	0xbdcaba97	-0.098988704
31	0xbac6e7ae	-0.0015175247
32	0xbba1d871	-0.004939132
33	0xbe33c7e1	-0.17556717
34	0xbe33638c	-0.17518443
35	0x3e7b98f3	0.24570064
36	0xbe136ea2	-0.14397672
37	0x3d617860	0.05504644
38	0x3e42b501	0.1901436
39	0xbdcfd8b9	-0.101487584
40	0xbdf7714a	-0.12082155
41	0xbdd56fac	-0.1042169
42	0x3e839fe3	0.2570792
43	0xbe5a3d4b	-0.21312444
44	0x3c979889	0.018505352
45	0xbe4657b8	-0.193694
46	0x3d8b84fe	0.068124756
47	0xbd88ee22	-0.06686045
48	0xbe6c9753	-0.231046
49	0x3e4e8408	0.20167553
50	0x3e37049b	0.1787285
51	0xbd2faac7	-0.042887475
52	0x3de57487	0.112038665
53	0x3d91725e	0.07101892
54	0xbe880410	-0.265656
55	0xbe6b6695	-0.2298835
56	0x3daa5862	0.08317639
57	0x3e7ad46b	0.24495094
58	0xbdcbf0bf	-0.09958028
59	0xbe0ac42e	-0.13551399
60	0x3e6e7a00	0.23288727
61	0x3d3e872d	0.046515632
62	0xbe442f37	-0.19158636
63	0x3e5222a9	0.20521034

weight f4 [128, 64]
0	0x3d9ca2b0	0.07648218
1	0x3d4a7c8c	0.049435183
2	0xbd7e35fc	-0.062063202
3	0xbd4183b4	-0.047244743
4	0x3da5a956	0.08088939
5	0xbd9465f4	-0.072460085
6	0xbd277bf0	-0.04088968
7	0x3cb6cd10	0.022314578
8	0x3cef4910	0.029209644
9	0x3cfe82d8	0.03106825
10	0xbcbaff40	-0.02282679
11	0x3bef5980	0.0073043704
12	0x3ddb2c7e	0.107018456
13	0x3dd02c5c	0.10164711
14	0xbd37bb40	-0.04485631
15	0x3dbd5b94	0.09245983
16	0x3db6299e	0.088946566
17	0xbd3debfc	-0.04636763
18	0x3dfaaeec	0.12240395
19	0xbc93b030	-0.018028349
20	0x3df8cedc	0.1214883
21	0x3d824ca0	0.06362271
22	0x3d8792e8	0.06619817
23	0xbd9d5bf0	-0.07683551
24	0xbc03e130	-0.008049294
25	0x3df9ff4a	0.12206896
26	0xbcbcdef8	-0.023055539
27	0x3dd2ef74	0.10299578
28	0xbc6582f0	-0.014008269
29	0xbda3195e	-0.07963823
30	0x3d060154	0.03271611
31	0xbdbc91ec	-0.0920752
32	0xbd3c1d0c	-0.04592614
33	0xbca82ab0	-0.020528167
34	0xbdde8074	-0.10864344
35	0xbd7e4108	-0.062073737
36	0x3dba1934	0.09086838
37	0xbd3738a8	-0.044731766
38	0x3cee6098	0.029098794
39	0xbddad286	-0.106846854
40	0x3c93d700	0.018046856
41	0x3d991306	0.074743316
42	0x3d99239e	0.074774966
43	0xbd49940c	-0.049213454
44	0x3cfaeb08	0.03062965
45	0x3c9b4f38	0.018958673
46	0x3d236c98	0.039898485
47	0x3d84d78c	0.06486425
48	0xbdd32dca	-0.10311468
49	0x3db12a52	0.0865065
50	0xbdba1fa0	-0.09088063
51	0x3d9f2238	0.077701986
52	0x3d8ac5aa	0.06775983
53	0xbce650f8	-0.02811478
54	0xbcfe9070	-0.031074733
55	0xbdda5e2e	-0.106624946
56	0xbdbdfbc2	-0.092765346
57	0xbd9c0300	-0.0761776
58	0x3daaee68	0.08346254
59	0xbce4a688	-0.02791144
60	0xbdce3bec	-0.10070023
61	0xbdf572b6	-0.1198477
62	0x3dad481a	0.08461018
63	0xbbf43900	-0.007453084
64	0xbda4c5fe	-0.080455765
65	0xbd2722c0	-0.040804625
66	0x3d310488	0.043217212
67	0xbdc4d792	-0.09611429
68	0xbcfb8fe0	-0.030708253
69	0x3d1cae84	0.03825237
70	0x3d63dc44	0.055629984
71	0x3d75a9d8	0.05997643
72	0xbc87fad0	-0.016599089
73	0xbdaa4fa4	-0.083159715
74	0xbca7cb60	-0.020482719
75	0xbcbd0a58	-0.023076221
76	0x3da71e12	0.08160032
77	0xbd9a4658	-0.07532948
78	0xbdf6c660	-0.12049556
79	0x3cc44ea0	0.023963273
80	0x3df88bea	0.121360615
81	0x3db1981a	0.08671589
82	0xbc91aa60	-0.017781436
83	0xbcc18570	-0.023623198
84	0x3d8e41a8	0.06946117
85	0x3d75b4dc	0.059986934
86	0xbdec1f60	-0.11529422
87	0x3deafb0c	0.11473665
88	0xbcc37208	-0.023858085
89	0x3d667548	0.056264192
90	0xbd48f180	-0.049058437
91	0xbdc52028	-0.09625274
92	0x3dc0fc70	0.09423149
93	0xbdc986bc	-0.09840152
94	0x3d9d9ada	0.07695551
95	0xbd524bd0	-0.05134183
96	0xbda72ae2	-0.08162476
97	0x3cb58450	0.022157818
98	0xbc4398b0	-0.011938259
99	0xbcde21e8	-0.027115777
100	0x3d47ab68	0.04874745
101	0x3d515e4c	0.05111532
102	0xbd0948b0	-0.033516586
103	0x3df575d4	0.119853646
104	0xbcc61238	-0.02417861
105	0x3c6ccf30	0.014453694
106	0x3df59704	0.119916946
107	0xbdd04d96	-0.10171048
108	0x3de0b4d0	0.10971987
109	0xbd374248	-0.044740945
110	0xbddae13a	-0.1068749
111	0x3c42ae60	0.011882395
112	0xbdf33256	-0.11874835
113	0xbd33425c	-0.043764457
114	0x3c36aab0	0.0111490935
115	0xbdb42178	-0.08795446
116	0xbc293630	-0.010327861
117	0xbdba7f1e	-0.09106277
118	0x3dd91106	0.1059895
119	0x3cfd4c98	0.030920312
120	0xbd92661c	-0.07148382
121	0xbbc7d540	-0.0060984194
122	0xbd25186c	-0.040306494
123	0x3da7520a	0.081699446
124	0x3decc300	0.11560631
125	0xbd1562d4	-0.036471203
126	0xbd5111a4	-0.051042214
127	0xbddf2000	-0.108947754
128	0xbdeb5ef0	-0.11492717
129	0x3d26e228	0.040743023
130	0xbd88edb0	-0.0668596
131	0x3c316e60	0.010829538
132	0x3d3f6970	0.046731412
133	0xbdd4a354	-0.10382715
134	0xbd6b6e00	-0.05747795
135	0xbd731954	-0.059350327
136	0x3dac477c	0.08412072
137	0xbdc70732	-0.09718169
138	0xbd451144	-0.04811217
139	0xbd845e62	-0.064633146
140	0x3d97b90c	0.07408342
141	0xbdbf6c74	-0.09346858
142	0xbd08f584	-0.033437267
143	0xbd9a5a9e	-0.07536815
144	0xbd31572c	-0.043296024
145	0x3d968b12	0.07350744
146	0xbd13017c	-0.035890087
147	0xbd998bda	-0.07497378
148	0x3adecc00	0.0016998053
149	0xbc74eed0	-0.014949515
150	0xbd4858e0	-0.048912883
151	0x3de65064	0.11245802
152	0x3c6a7910	0.01431109
153	0xbd8027e8	-0.062576115
154	0x3dba5992	0.090991154
155	0x3de4011a	0.111330226
156	0x3d0cb588	0.03435281
157	0xbc9f6bb0	-0.01946053
158	0xbdfc2d36	-0.12313311
159	0xbd917dd2	-0.071040764
160	0x3cf0afb0	0.02938065
161	0xbdbc3d64	-0.09191397
162	0xbdda2924	-0.10652378
163	0x3d72edb8	0.059308738
164	0xbc373a80	-0.011183381
165	0xbcfb2808	-0.030658737
166	0x3c246480	0.010033727
167	0xbc106a80	-0.008814454
168	0x3d3b56b0	0.04573697
169	0xbd763348	-0.0601075
170	0xbdc28204	-0.09497455
171	0x3da565f8	0.080760896
172	0x3dfd32f2	0.12363233
173	0x3d8cccf4	0.06875029
174	0xbda8d8d4	-0.08244482
175	0xbd43dae0	-0.047816157
176	0xbd931af4	-0.07182875
177	0x3dbee054	0.09320131
178	0x3dd3d7d2	0.10343899
179	0xbd7d7e60	-0.0618881
180	0x3d04c040	0.032409906
181	0x3dd445d2	0.1036488
182	0x3c2ab2d0	0.010418609
183	0x3ab05500	0.0013453066
184	0xbd916e16	-0.07101075
185	0xbd361c4c	-0.04446058
186	0xbda6b264	-0.08139494
187	0xbd7ad540	-0.061238527
188	0x3d8d8414	0.069099575
189	0x3dae7222	0.08517863
190	0x3df2323c	0.11825988
191	0x3d52630c	0.05136399
192	0xbdcedbb6	-0.101005
193	0x3dfa3438	0.12216991
194	0xbdcdfbe6	-0.100578114
195	0x3dcc3da6	0.09972696
196	0x3de2e6e8	0.11079198
197	0xbdb19246	-0.086704776
198	0x3d4bc928	0.049752384
199	0xbd7c9bfc	-0.061672196
200	0xbdcb71de	-0.09933828
201	0x3dd4b290	0.103856206
202	0xbd9f649c	-0.077828616
203	0xbdeaceac	-0.11465201
204	0xbd81ca44	-0.06337407
205	0xbcb3daa0	-0.021954834
206	0x3df4d3be	0.11954449
207	0xbd8d4afe	-0.06899069
208	0x3d9c5242	0.07632877
209	0xbd22ea54	-0.039774254
210	0xbd91970e	-0.071088895
211	0xbcdc2160	-0.026871383
212	0x3d1a5818	0.03768167
213	0xbda9bcc2	-0.08287956
214	0xbd716e74	-0.058943227
215	0x3dcc6b68	0.099814236
216	0x3c38d520	0.011281282
217	0x3bdf7100	0.0068188906
218	0x3dbba310	0.09161961
219	0xbdb19fd8	-0.08673066
220	0xbdf91c0e	-0.12163554
221	0xbd4c2b0c	-0.04984574
222	0xbd8bbe6c	-0.068234295
223	0xbdaca364	-0.08429602
224	0x3db540ca	0.08850248
225	0xbdc46df0	-0.095912814
226	0xbd86fef0	-0.06591594
227	0x3c8bd898	0.017071053
228	0x3d08ad40	0.03336835
229	0xbdba3ca6	-0.09093599
230	0xbca02328	-0.019548014
231	0xbd48d754	-0.049033478
232	0x3d1c005c	0.03808628
233	0x3d846064	0.064636976
234	0xbc6545f0	-0.013993725
235	0xbde42930	-0.111406684
236	0xbbc67000	-0.006055832
237	0x3df452f4	0.119298846
238	0xbb981f80	-0.004642427
239	0xbd90cc70	-0.07070243
240	0x3c45ec10	0.0120802075
241	0xbdd8902c	-0.105743736
242	0xbda81778	-0.08207601
243	0x3d9d0452	0.0766684
244	0xbd828452	-0.06372894
245	0x3c9e6cf0	0.019339055
246	0xbd457c50	-0.048214257
247	0x3dfb0652	0.12257065
248	0x3d99242e	0.07477604
249	0x3d717254	0.058946922
250	0x3cb56520	0.022142947
251	0x3d01b94c	0.031670853
252	0x3af24980	0.001848504
253	0x3bd76560	0.006573364
254	0x3d588314	0.05285938
255	0x3c962cc8	0.0183319

bias f4 [128]
0	0xbde91e34	-0.11382714
1	0xbdb4f62a	-0.088360146
2	0xbcbfcc88	-0.023412958
3	0x3db96f34	0.090544134
4	0xbc661210	-0.014042392
5	0x3d9822f0	0.07428539
6	0xbd0c5ed4	-0.034270123
7	0x3d182614	0.03714569
8	0xbd97f458	-0.07419652
9	0xbcbab3d8	-0.022790834
10	0xbd69f34c	-0.05711679
11	0x3bc338c0	0.005957693
12	0x3c802840	0.015644193
13	0xbdbff3a4	-0.09372643
14	0xbd910ee4	-0.07082918
15	0x3cd12e88	0.025534883
16	0xbdd39f44	-0.10333112
17	0x3dfac6b0	0.12244928
18	0xbbaf2dc0	-0.00534603
19	0xbdd7ef3e	-0.10543679
20	0x3d13fc04	0.036129013
21	0xbcf6b308	-0.030114666
22	0x3d657954	0.05602391
23	0x3df7df78	0.1210317
24	0x3d8bfc8a	0.068352774
25	0x3ca362a0	0.019944489
26	0xbcff2c00	-0.03114891
27	0xbd7b0490	-0.061283648
28	0x3daf35ae	0.085551605
29	0xbdc803dc	-0.09766361
30	0xbdafa58a	-0.08576496
31	0xbd50d58c	-0.050984904
32	0x3d8292d8	0.063756645
33	0xbd5247bc	-0.051337942
34	0xbd563108	-0.052292854
35	0xbda23cd6	-0.0792176
36	0x3d9d3020	0.07675195
37	0xbb961140	-0.004579693
38	0xbdbf1168	-0.09329492
39	0xbd0e9cb8	-0.034817427
40	0x3cd425e8	0.025896981
41	0xbd217d9c	-0.03942643
42	0x3d45e804	0.04831697
43	0xbcabda48	-0.020978108
44	0xbd29a09c	-0.041412935
45	0xbccb98a0	-0.02485305
46	0xbd6dc670	-0.058050573
47	0xbdd53622	-0.10410716
48	0xbdcdedd0	-0.10055125
49	0xbdbf7580	-0.09348583
50	0xbd49f898	-0.049309343
51	0xbdcb3a70	-0.099232554
52	0xbd9d6e84	-0.07687095
53	0xbdd4b4b4	-0.10386029
54	0xbd61d3e0	-0.0551337
55	0xbd1b62f4	-0.037936166
56	0x3cdde058	0.027084514
57	0x3c374a90	0.011187211
58	0xbc5c5c20	-0.013449699
59	0xbdd22b14	-0.10262123
60	0xbd012df8	-0.03153798
61	0x3d73ce28	0.059522778
62	0xbd6cb7d8	-0.057792515
63	0xbd4a09ac	-0.04932563
64	0x3d9d7cb0	0.07689798
65	0xbd0bfe14	-0.034177855
66	0x3cb973f8	0.022638306
67	0xbdfd65c6	-0.12372927
68	0x3c6f4a10	0.01460506
69	0x3da5d9a8	0.08098155
70	0x3de65398	0.11246413
71	0xbde900c4	-0.11377099
72	0xbdfa5376	-0.1222295
73	0x3d060b08	0.032725364
74	0x3ce4f848	0.027950421
75	0xbc60ddf0	-0.013724789
76	0x3cc22fc8	0.023704425
77	0xbdf5bfb6	-0.119994566
78	0xbdb5b368	-0.0887211
79	0xbda85b1c	-0.08220503
80	0xbddbf128	-0.10739356
81	0xbd773b50	-0.0603593
82	0xbd098558	-0.033574432
83	0x3cb5eec8	0.022208586
84	0x3df259ee	0.11833559
85	0x3c3d6c70	0.011561498
86	0xbdc5cc76	-0.096581385
87	0x3b817520	0.00395073
88	0xbca88300	-0.020570278
89	0x3dbedc1a	0.09319325
90	0x3d4f8e44	0.050672784
91	0x3d262de0	0.040571094
92	0xbd232f18	-0.039839834
93	0xbde09288	-0.109654486
94	0xbd4a4128	-0.049378544
95	0x3d376f30	0.04478377
96	0x3c51d2e0	0.012806624
97	0x3db0cf66	0.08633308
98	0x3d6e3754	0.058158234
99	0x3ddeeb7c	0.10884759
100	0x3db352f0	0.087560534
101	0xbd36e66c	-0.04465334
102	0xbdb9ed28	-0.09078437
103	0x3de19304	0.11014369
104	0x3d38bd84	0.04510261
105	0xbddce024	-0.10784939
106	0xbdf910e8	-0.12161428
107	0x3cc91ff8	0.024551377
108	0x3d69dbc8	0.057094365
109	0xbd62cecc	-0.055372998
110	0x3d708ab4	0.058726028
111	0xbdbc87fc	-0.092056245
112	0x3dbf989e	0.09355281
113	0xbdafcf46	-0.08584456
114	0x3d75556c	0.059895918
115	0xbdb1e184	-0.08685592
116	0xba621400	-0.0008624196
117	0x3d2d4a88	0.042307407
118	0xbd319a74	-0.04336019
119	0xbdd32b1e	-0.10310958
120	0xbdb3a8ba	-0.087724164
121	0xbdf586b0	-0.1198858
122	0x3c7cb1a0	0.0154232085
123	0x3c6ef790	0.014585391
124	0x3ddc2e8c	0.107510656
125	0x3ddbd8e6	0.107347295
126	0xbd81198a	-0.06303699
127	0x3c773f40	0.015090764

weight f4 [5, 128]
0	0x3cde0259	0.027100729
1	0x3ce736a6	0.0282243
2	0x3b928c86	0.004472318
3	0xbc40cee2	-0.011768075
4	0xbd4a368f	-0.049368437
5	0xbc35a861	-0.011087508
6	0xbc2c4d7f	-0.010516523
7	0x3bf7ec67	0.007566023
8	0xbd8ba872	-0.06819238
9	0xbca66e1f	-0.020316182
10	0x3d4844ee	0.04889386
11	0x3cecc794	0.02890376
12	0x3d89d2f8	0.06729692
13	0xbd80395b	-0.0626094
14	0xbcc9b134	-0.02462063
15	0x3da95589	0.08268268
16	0x3d9cad50	0.07650244
17	0xbdb265f0	-0.08710849
18	0x3bed7b2f	0.0072473506
19	0x3d92539f	0.07144856
20	0x3d7520e0	0.059845805
21	0x3daa754d	0.083231546
22	0x3d1e5ebd	0.03866457
23	0xbce4e96e	-0.02794334
24	0x3c9b0eeb	0.018928012
25	0x3c90b054	0.017662205
26	0xbdad8bb3	-0.08473911
27	0x3d15c113	0.036561083
28	0xbcfc40a3	-0.03079254
29	0xbd9871b3	-0.074435614
30	0xbda4dcf7	-0.08049958
31	0x3cb07d62	0.021544162
32	0x3d55e4b9	0.05222008
33	0x3c68871f	0.014192372
34	0x3d941594	0.07230678
35	0xbd95092d	-0.07277141
36	0x3d00ad17	0.03141507
37	0xbd4a1f5e	-0.04934632
38	0xbd9ef79a	-0.0776207
39	0x3db47778	0.08811849
40	0xbd4b2aff	-0.04960155
41	0x3d25d16c	0.040482923
42	0xbcb285ae	-0.021792259
43	0xbd90e9a6	-0.07075815
44	0x3d9a52ab	0.07535299
45	0x3d11deb5	0.03561278
46	0x3d45a827	0.048256066
47	0x3d338be5	0.043834586
48	0x3da57a90	0.080800176
49	0x3d1546ef	0.0364446
50	0x3ca77c37	0.020444972
51	0xbd81fb46	-0.06346755
52	0xbdb00b64	-0.085959226
53	0xbc8c1776	-0.01710103
54	0x3d923da3	0.071406625
55	0x3c70a4de	0.014687745
56	0x3cd483d8	0.025941774
57	0xbd8e99dd	-0.06962941
58	0x3d3eb50a	0.04655937
59	0xbd78805d	-0.06066929
60	0x3d167a29	0.036737595
61	0x3d87bb36	0.066275045
62	0xbca3b117	-0.019981904
63	0x3db3a2a1	0.087712534
64	0xbc2519e5	-0.0100769745
65	0xbd269711	-0.040671412
66	0x3c38cf3b	0.011279876
67	0x3c4719a0	0.012152106
68	0x3d00a77f	0.031409737
69	0xbd10d333	-0.035357665
70	0xbd529b5b	-0.05141769
71	0x3d61d1f2	0.05513186
72	0xbcf9c126	-0.030487608
73	0x3d850443	0.064949535
74	0x3c425206	0.011860376
75	0x3d94f4e7	0.07273274
76	0x3c8e69e5	0.017384479
77	0x3d7eaba4	0.062175408
78	0xbd857149	-0.06515748
79	0x3d63d25b	0.055620532
80	0xbc41533e	-0.011799632
81	0x3d686eed	0.056746412
82	0x3da96696	0.0827152
83	0xbda037b9	-0.07823128
84	0x3bffd0c8	0.007806871
85	0xbc2c0335	-0.0104988115
86	0xbd59abed	-0.053142477
87	0x3d005f49	0.03134087
88	0xba3d3e02	-0.0007219018
89	0xbda3333d	-0.07968757
90	0x3d049035	0.03236409
91	0x3d6d5410	0.057941496
92	0xbd22722d	-0.039659668
93	0xbcb67e36	-0.022276979
94	0xbc95ca6c	-0.018284999
95	0xbcb3352d	-0.021875942
96	0xbd048394	-0.032352045
97	0xbc791579	-0.015202873
98	0xbd6e4088	-0.05816701
99	0xbd352d8b	-0.044232886
100	0x3d6af5a1	0.057363156
101	0x3d4b25e4	0.049596682
102	0xbd8d7689	-0.069073744
103	0xbd701692	-0.058615275
104	0xbd6b0a1a	-0.05738268
105	0xbd9a3b8f	-0.07530891
106	0x3cda0029	0.026611404
107	0xbd500c77	-0.050793137
108	0x3db1d9c8	0.086841166
109	0x3daf50d7	0.08560341
110	0xbda8e2ce	-0.082463846
111	0x3ceb01c0	0.028687358
112	0x3cfa6e7a	0.030570257
113	0x3d9f1292	0.07767214
114	0x3d03fc97	0.03222331
115	0xbd738198	-0.059449762
116	0x3d394db7	0.04524013
117	0x3c0e2072	0.008674728
118	0x3d934b23	0.071920656
119	0xbd7029b2	-0.058633514
120	0x3cb24f52	0.021766338
121	0xbda658e7	-0.081224255
122	0x3d0b4a06	0.03400614
123	0x3d702cd0	0.058636487
124	0xbd0df61e	-0.034658544
125	0xbd92a4eb	-0.07160362
126	0xbd6c8d03	-0.057751667
127	0x3d6722df	0.05642974
128	0x3ce9a81b	0.028522542
129	0xbd9cfc19	-0.07665271
130	0x3d850e77	0.064968996
131	0xbd98a284	-0.074528724
132	0x3d13417a	0.035951115
133	0xbdb255ea	-0.08707793
134	0xbc8a5158	-0.01688449
135	0xbc984d56	-0.018591564
136	0x3d55c11d	0.05218612
137	0x3d82fe6f	0.063961856
138	0x3d80e748	0.062941134
139	0x3d11aa72	0.03556294
140	0xbda30cf2	-0.079614535
141	0xbc64b334	-0.013958741
142	0xbd7c9e19	-0.06167421
143	0x3bbf9273	0.0058463155
144	0xbdafbbf9	-0.08580775
145	0xbd678e62	-0.05653227
146	0x3d4174f1	0.047230665
147	0xbc2b5674	-0.010457624
148	0xbd65eb18	-0.056132406
149	0x3d48aba3	0.04899181
150	0xbd9ed713	-0.07755866
151	0xbd219f94	-0.039458826
152	0xbc096a1f	-0.008387118
153	0x3d9d62e5	0.07684878
154	0x3d3d4070	0.04620403
155	0xbd251cb0	-0.04031056
156	0x3d4675b6	0.0484521
157	0x3d8f1102	0.06985666
158	0xbd49b4d6	-0.049244724
159	0xbcd0ad2a	-0.025473196
160	0xbd00ce28	-0.031446606
161	0x3d8f209b	0.06988641
162	0xbda5a788	-0.08088595
163	0xbd988674	-0.0744752
164	0xbc7f252d	-0.015572828
165	0xb9ff4839	-0.000486912
166	0xbd90b672	-0.07066049
167	0x3c999345	0.018746981
168	0x3da8aa03	0.08235552
169	0xbd0dd10f	-0.034623202
170	0x3d9ac963	0.07557943
171	0xbda71cca	-0.08159788
172	0x3c13da19	0.0090241665
173	0x3d8a194a	0.06743105
174	0x3cea716f	0.028618542
175	0xbca8ecc6	-0.020620715
176	0x3d9a2200	0.07526016
177	0x3c3cdf2a	0.011527816
178	0xbdad0a63	-0.08449247
179	0xbd90bd97	-0.070674114
180	0xbd37fde2	-0.044919856
181	0x3cee3fd3	0.029083168
182	0x3d3afb32	0.045649715
183	0xbd87c4db	-0.06629344
184	0x3c52ca03	0.012865546
185	0xbd5f90c8	-0.054581434
186	0x3dadf6e8	0.08494359
187	0x3cacc4c7	0.021089924
188	0xbda5eb9e	-0.08101581
189	0xbc25709a	-0.010097647
190	0xbdab535c	-0.08365509
191	0x3db4d2fa	0.08829303
192	0xbd293c22	-0.041317113
193	0x3d5a6e9f	0.053328153
194	0xbd42c107	-0.047547366
195	0x3da96f95	0.08273236
196	0x3c381bb7	0.0112370765
197	0x3c0d7ce2	0.008635731
198	0x3d79b876	0.06096693
199	0xbda885f7	-0.08228677
200	0xbd8fabe3	-0.07015207
201	0x3d672a79	0.05643699
202	0xbdb117c9	-0.08647115
203	0xbb337ece	-0.0027388814
204	0x3da0857d	0.07837961
205	0x3d4882b7	0.048952784
206	0xbd8d04a7	-0.06885653
207	0x3d686273	0.056734513
208	0x3d1d450c	0.038395926
209	0xbc61ba5b	-0.013777341
210	0x3bd4167c	0.006472407
211	0xbcb3ccb8	-0.021948203
212	0xbc6ca4e3	-0.014443609
213	0xbd1d8ca1	-0.038464192
214	0x3db2ad94	0.08724514
215	0xbcea6268	-0.028611377
216	0xbcad583b	-0.021160236
217	0x3d905a20	0.0704844
218	0x3bf54e54	0.007486144
219	0x3d652e98	0.05595264
220	0x3d0dbe52	0.03460533
221	0xbd96f64c	-0.07371196
222	0x3cabfca5	0.020994494
223	0xbd973bb1	-0.07384432
224	0x3bf55fa7	0.0074882093
225	0xbda9a697	-0.082837276
226	0xbc18fb3e	-0.009337245
227	0x3cfb34ff	0.030664919
228	0x3d04c152	0.032410927
229	0x3c92040d	0.017824197
230	0x3d212471	0.039341394
231	0x3d8ad80f	0.06779491
232	0x3c40a0eb	0.011757116
233	0x3d40602d	0.04696672
234	0x3d3056a5	0.04305138
235	0xbcbf6050	-0.023361355
236	0x3d71efd0	0.059066594
237	0xbd2b6af8	-0.04185006
238	0x3be1a0d0	0.0068856254
239	0x3c8f41c9	0.017487423
240	0xbd82df43	-0.0639024
241	0x3c7bc66b	0.015367131
242	0x3d87ef45	0.06637434
243	0x3c74ab41	0.014933408
244	0xbd8b70a2	-0.068085924
245	0xbc834cc9	-0.016027825
246	0x3be36052	0.0069389725
247	0xbda44734	-0.080213934
248	0x3d13a9da	0.036050655
249	0x3db4041f	0.087898485
250	0xbc1291bd	-0.0089458795
251	0x3d43a2f2	0.04776282
252	0x3bac22a1	0.0052531515
253	0xbd8f9377	-0.070105486
254	0x3d282999	0.041055296
255	0xbd63b55a	-0.055592872

bias f4 [5]
0	0xbdae5174	-0.0851163
1	0x3d6d4b1f	0.05793297
2	0x3c04d781	0.008108021
3	0x3c5f7c68	0.013640501
4	0xbd6e4713	-0.05817325
