rl_models/model-2.pth (torch, 45271 bytes, 6 tensors)

weight f4 [64, 14]
000000 16 97 27 be c6 dc 9d bc 41 1d c3 bb 1b 23 51 3e
       -0.16366228 -0.019270312 -0.005954415 0.20423548
000010 71 72 7c bc c9 1b 1d be b6 75 4f 3e bd 6c 1c be
       -0.015408144 -0.1534263 0.20259747 -0.15275855
000020 59 3a 87 3d e5 3e fd bb fb 74 19 3e e5 0a c2 bd
       0.06602926 -0.007728445 0.14986031 -0.09474734
000030 1d 96 3d 3e a9 df 43 be 78 cd 90 3c 45 f0 84 3e
       0.18514295 -0.19128288 0.0176761 0.2596456
000040 b5 e3 b6 3d e6 20 e1 3d d9 0b eb 3d eb 29 73 bd
       0.089301504 0.10992603 0.11476869 -0.059366148
000050 7f e3 5d 3e c2 26 e0 3d 4e 57 6a 3e 65 7f 73 be
       0.21668814 0.109448925 0.22884867 -0.23779066
000060 81 e0 28 be 75 8c 83 3e 55 0a 6d be 7e 32 03 be
       -0.16491891 0.25693098 -0.23148473 -0.1281223
000070 94 5d 5f bd 68 a6 b6 bd 41 11 4f 3e 43 1a 0a 3e
       -0.054532602 -0.08918458 0.20221426 0.1348658
000080 a3 3f 0a 3e ef 78 fa 3d 24 03 a4 3d 80 57 b7 bd
       0.13500838 0.122300975 0.080084115 -0.08952236
000090 22 fa 76 3e 44 34 b5 3b 7d f0 2a bd 0a 8a 35 be
       0.24118856 0.005529912 -0.041733254 -0.17728439
0000a0 6d 4f 29 be 32 82 4f be ec 43 6b be 02 fb 55 be
       -0.16534205 -0.2026451 -0.22975129 -0.20896533
0000b0 f9 ce 68 3e f7 dd f1 3d f9 f9 4c bd 31 14 cb 3d
       0.22735204 0.118099146 -0.05004308 0.099159606
0000c0 0b 72 29 be a1 68 1d be e9 a8 a4 3c 7c 8b a6 bd
       -0.1654741 -0.15371944 0.020100074 -0.08132073
0000d0 d1 81 77 be ce cb 56 be 8c 7b 02 bd 57 8f c2 bd
       -0.24170615 -0.20976183 -0.031856105 -0.09499996
0000e0 28 87 23 be 6c 53 62 3e 1d a9 10 be 9a f7 d9 3d
       -0.15969527 0.22102135 -0.14127012 0.106429294
0000f0 9e fd 56 3e 31 45 b1 bd 33 17 86 3e ac 83 e2 bd
       0.20995185 -0.08655775 0.26189575 -0.11060271
000100 07 23 82 be 3b 1d d2 3d 47 a5 f9 3d fe 39 85 bd
       -0.2541735 0.102594815 0.12189727 -0.06505202
000110 8f af eb 3d 93 aa ad bd 8c 8d ef bd 02 7d 85 3e
       0.115080945 -0.084798 -0.1169692 0.26071936
000120 a8 a1 1c be 1b 01 22 be b9 ab 1d 3e dd 8f 42 be
       -0.15296042 -0.15820734 0.15397538 -0.19000192
000130 05 8a ae 3d 47 81 c3 bc 05 f6 5d be 05 d9 8e bd
       0.08522419 -0.023865355 -0.2167588 -0.06974987
000140 78 7a 5d bd d1 96 82 be 50 c8 85 be d7 c8 07 be
       -0.054071873 -0.2550569 -0.2612939 -0.13260208
000150 7d d7 27 bd 79 12 de 3d 7f 58 ef bd 6f f9 34 bd
       -0.04097699 0.10843367 -0.11686801 -0.04418319
000160 85 4f 10 3e 12 71 87 bd dd 9b b0 bd e2 e6 3c 3d
       0.14092834 -0.06613363 -0.086234786 0.046118625
000170 2b f6 6e be 2a 19 53 be 25 01 0f 3e 20 12 13 3d
       -0.23336093 -0.20615068 0.1396528 0.035905957
000180 a0 62 58 3e 1c 3e 9a 3d e8 cf 01 be 4b 6b bc 3d
       0.21131372 0.07531378 -0.12676966 0.09200152
000190 e9 41 00 3e 33 ca 3e 3e dc d1 58 be 72 2f 55 3d
       0.12525143 0.1863182 -0.21173805 0.0520472
0001a0 9b 7b 0b bd b8 ee 66 be a9 97 d4 bd 1d 15 af 3c
       -0.034053426 -0.22552001 -0.103804894 0.021372372
0001b0 eb d9 7e be 59 9c 09 3e 5b bf 08 be 5b fe 14 be
       -0.24887817 0.13438548 -0.13354246 -0.14550154
0001c0 3a af 25 3e e8 ed 27 be 3b 89 7c be 45 2a 88 3e
       0.16180125 -0.16399348 -0.24661724 0.2659475
0001d0 e6 a1 42 be 65 dc 3d bd 52 e7 31 bc de 87 80 3b
       -0.19007072 -0.046352763 -0.010858374 0.0039224466
0001e0 3b 90 b8 bd 19 70 64 3e 83 c7 41 3e 16 32 1b 3d
       -0.09011885 0.22308387 0.18923764 0.037889563
0001f0 fd 66 12 3e 9c ba 0a 3d 36 80 ad bd 87 1f 38 3c
       0.142971 0.03386937 -0.0847172 0.011237985
000200 5f 2e fc 3d 72 15 81 3e 0f 7e 07 be 1f 31 f9 bd
       0.12313532 0.25211674 -0.13231681 -0.12167572
000210 fe 0b 12 be 57 4c a5 3c d0 27 63 be a6 40 02 be
       -0.14262387 0.020178003 -0.22183156 -0.12719974
000220 9d 0a 08 3d c8 86 46 3e d7 56 34 bc ab c6 36 be
       0.033213247 0.19387352 -0.011007032 -0.17849223
000230 e0 22 77 be af 3b 82 3e d6 a0 3f 3d 57 4f 37 3e
       -0.24134398 0.2543616 0.046784244 0.1790136
000240 54 07 f9 bd f9 27 76 be d4 79 14 3e 53 dc 32 be
       -0.12159601 -0.24038686 0.14499599 -0.1746686
000250 35 b6 3f 3e ea e4 99 3d 62 0c 71 3d 38 cb 3b 3d
       0.1872185 0.07514365 0.0588497 0.0458481
000260 2c d3 a4 bd 17 1d 4c 3e 7d 61 63 be 6b d5 2a be
       -0.0804809 0.19932972 -0.22205158 -0.16682975
000270 f8 33 51 be 0e f0 37 3e 7e 28 5c 3e b4 be 34 be
       -0.20429981 0.17962667 0.21499822 -0.17650872
000280 17 50 a8 3d c2 ce 72 3e bb bc 71 be d7 10 c7 3d
       0.08218401 0.23711684 -0.23607151 0.09720009
000290 0e f5 a1 3d 6d 59 f9 3d e4 06 d5 bd d5 ee 3c 3d
       0.079080686 0.1217526 -0.10401705 0.046126205
0002a0 28 fd 87 3e ff 73 48 3d 2d 50 d8 3d f5 be 5b be
       0.2656033 0.048938747 0.10562167 -0.21459563
0002b0 72 93 24 be 98 db 51 be e3 59 51 be fb 91 c3 bc
       -0.16071871 -0.20493925 -0.20444445 -0.02387332
0002c0 93 e3 aa bd 0b 81 0b be 2e 71 8a 3c 08 f1 0b 3d
       -0.083441876 -0.13623445 0.016899671 0.034165412
0002d0 1a 08 59 bd 07 dc 11 3e 80 0e 0c 3d e2 d3 1c 3e
       -0.052986242 0.1424409 0.034193516 0.15315202
0002e0 37 ca 5d 3e 28 b6 ea bd 37 bb 63 3e 53 f4 ba 3d
       0.2165917 -0.11460525 0.22239386 0.091286324
0002f0 7d 0d ca bd eb 91 04 3e 36 75 09 3e 33 ed 42 3e
       -0.09865854 0.12946288 0.13423619 0.19035797
000300 8f 56 7e be 48 a6 10 bd f6 6a 40 3e 02 11 9f bd
       -0.24837707 -0.03531483 0.18790802 -0.07766916
000310 b8 8d 0d be e3 a4 fc 3c 40 21 6a 3e e5 d4 37 bd
       -0.13823593 0.030840343 0.22864246 -0.044880766
000320 b4 44 7b bd 91 73 3f 3d 39 9b 74 3e b3 51 93 bd
       -0.061344817 0.046741072 0.23887338 -0.07193317
000330 ed f8 3a 3e 76 3e f2 3d f2 9d 5c 3e 4f 6d 63 3e
       0.1825902 0.1182832 0.21544626 0.22209667
000340 c6 f9 87 3c ce cf 1b 3c ff 7d 44 3e ca ad 22 3e
       0.016598593 0.009509994 0.19188689 0.15886608
000350 02 6b 13 be bc ff 09 be ec 65 e2 bd d9 e8 2b be
       -0.14396289 -0.13476461 -0.11054596 -0.16788043
000360 63 57 2d 3c a9 32 d8 bc a0 ef 53 be 4b ef 05 3e
       0.010579917 -0.026391344 -0.20696878 0.13079564
000370 72 48 5c be 67 71 de bd 7c 9c 77 be 7c ee 5d be
       -0.2151201 -0.108614735 -0.24180788 -0.21673006
000380 7d bb 23 3e 1b 37 4c 3d 59 40 71 be 9e 3a c2 3d
       0.1598949 0.04985724 -0.23559703 0.094838366
000390 9b 59 12 be 20 e4 e4 bd ea 98 95 bd d0 19 34 be
       -0.14291994 -0.11176324 -0.07304557 -0.17587972
0003a0 6f 40 e0 bd da 44 82 3e ef 94 4b be 20 d1 2d 3d
       -0.1094979 0.25443155 -0.19881032 0.042435765
0003b0 f1 e5 2e 3d 70 d6 4a be 8f 45 7f 3e b9 9b 24 3e
       0.042699758 -0.19808364 0.24928878 0.16075028
0003c0 0b 05 0c bd 91 93 e0 3c e0 a5 d5 3d 19 b2 5f 3d
       -0.034184497 0.027414115 0.10432029 0.054613207
0003d0 ba 41 63 3d 44 d9 6f bd fd c7 1c 3e c8 24 23 3c
       0.055482604 -0.05855681 0.15310664 0.0099575
0003e0 38 05 38 be 13 b1 1a be 41 34 b1 3c 8f 5c 31 3e
       -0.17970741 -0.15106611 0.021631362 0.17320465
0003f0 fc d0 88 be 19 2b e5 3d be 73 2a bd 2c a0 1d 3d
       -0.26721942 0.11189861 -0.041614287 0.03848283

bias f4 [64]
000000 4c 6f c0 3d 14 82 c3 3c f8 77 19 3e 91 1e 3d 3e
       0.09396228 0.023865737 0.1498717 0.18468691
000010 b6 a9 80 3d c6 1a fa 3d 14 e6 0c 3d 8b 2f f1 3d
       0.0628237 0.12212138 0.034399107 0.11776646
000020 c9 a6 29 bd f6 a8 b6 3d 7d 5b 0d be d1 0d df bd
       -0.041418824 0.089189455 -0.13804431 -0.10891307
000030 55 7d 71 bd ff c3 e2 3d 7b 88 83 be 30 15 75 be
       -0.058957417 0.110725395 -0.25690064 -0.23933864
000040 a9 aa 34 3e e9 9a 63 be c9 34 01 be 31 04 26 3e
       0.17643227 -0.22227062 -0.12617792 0.16212536
000050 c7 56 65 bd ea ed c2 bd 82 7b c6 bc 0a 0e 78 3e
       -0.05599096 -0.09518035 -0.024228815 0.24224105
000060 1d 9b 7f be c1 df d5 bd 87 96 b8 bd 1e b9 a5 bc
       -0.24961515 -0.10443068 -0.09013086 -0.020229872
000070 b7 a1 69 3e cc 4e 4f bd 0e e1 71 3d 76 6d 79 be
       0.22815596 -0.050612256 0.05905252 -0.24358162
000080 db 0b 36 3e 09 80 8d 3d 2e 42 58 be 11 df 82 be
       0.1777796 0.069091864 -0.21118996 -0.2556081
000090 70 15 84 be 2d 27 4f 3d 73 7f d2 bd a7 cd 7f 3e
       -0.25797606 0.05057447 -0.10278215 0.24980794
0000a0 a4 ba a7 bd 33 39 49 3e 92 8e eb bd 07 2f 11 be
       -0.08189896 0.19650726 -0.115018025 -0.14178096
0000b0 8e d0 38 3e eb 61 2f be e3 c8 3d 3c b7 68 9e 3d
       0.18048307 -0.17127196 0.01158354 0.077348165
0000c0 4f 18 82 be fd d2 2b 3e 53 84 43 3e 17 d6 86 3e
       -0.2540917 0.16779704 0.19093446 0.26335213
0000d0 f9 04 05 be 3b 3b d8 3d cc 16 65 be c7 c8 9d bd
       -0.12990178 0.10558172 -0.22371978 -0.07704311
0000e0 22 56 3e 3e f4 45 2f 3d 4d 78 d8 3d ab 90 6e bc
       0.18587545 0.042791322 0.105698206 -0.014560859
0000f0 a3 24 da 3d 8a fe 31 bd ef 14 57 be d9 48 04 be
       0.10651519 -0.043455638 -0.2100408 -0.12918414

weight f4 [128, 64]
000000 ce 75 9e bd 5c 84 df bd 46 36 93 3d 22 f7 b3 bd
       -0.07737313 -0.109139174 0.07188086 -0.08787371
000010 18 5c 79 3d 38 70 df 3c b6 f2 f4 3d 18 38 c7 3d
       0.060878843 0.02727519 0.11960356 0.09727496
000020 ea 39 bb 3d c0 c5 78 3b cc 2c d1 3d 00 61 16 3c
       0.091419056 0.0037959665 0.102136225 0.0091784
000030 80 4b f6 3d 98 f5 db bc 48 c5 98 3c ca 18 ad bd
       0.12026119 -0.026850507 0.018648759 -0.08451994
000040 1e e5 b0 bd e8 27 9b 3c ca 5d ac bd 8c 2d 1e bd
       -0.08637451 0.018939927 -0.08416326 -0.038617656
000050 4c 33 6b bd 38 07 e8 3d d6 e7 df 3d 80 57 87 bb
       -0.057421967 0.11329502 0.10932891 -0.004130304
000060 2c 78 e5 3d a4 8a fa bd bc fe 66 bd b4 65 45 3d
       0.112045616 -0.12233475 -0.056395277 0.048192695
000070 48 b9 1e 3d f8 6d 54 3d b6 38 d2 bd 8a 19 f5 3d
       0.038750917 0.051862687 -0.10264723 0.11967762
000080 50 d6 e7 3d d0 49 e3 bd 00 76 bf 3d b8 96 d0 bc
       0.11320174 -0.11098063 0.093486786 -0.025462493
000090 28 b4 6d bd c0 0b 52 bd d6 4e 98 3d 40 5a 73 3b
       -0.05803314 -0.051280737 0.07436912 0.003713265
0000a0 80 ae fe bc 10 1a 65 3d 5c a2 06 bd f4 94 a6 3d
       -0.031089067 0.05593306 -0.03286968 0.08133879
0000b0 64 58 c0 bd 30 eb ab 3d e4 43 9f bd 26 66 af bd
       -0.09391859 0.08394468 -0.07776621 -0.08564405
0000c0 d6 b2 ee 3d 6c d8 53 3d 20 96 cd bd 00 94 84 3c
       0.11655204 0.051720068 -0.100384 0.016183853
0000d0 00 98 65 3b 88 eb aa 3c 44 dd e9 3d ba 85 ad 3d
       0.0035033226 0.020864263 0.11419156 0.08472772
0000e0 f0 4e 03 3c 20 b1 02 3d fa 48 f4 3d 5c 5f b6 3d
       0.008014426 0.0319072 0.11927982 0.08904907
0000f0 00 ca 5e bc 38 5a 69 bd a4 de f0 bd 48 2b 74 3d
       -0.013597965 -0.056970805 -0.11761215 0.05961159
000100 94 25 a5 3d f6 fa 9e 3d 36 63 a0 bd 20 76 ab 3d
       0.08063808 0.07762711 -0.07831423 0.0837214
000110 74 32 88 bd 90 f3 49 bc c0 f4 ff 3c 70 06 0d 3d
       -0.06650248 -0.012326136 0.031244636 0.034429967
000120 c0 12 1e bb e2 04 fe 3d 26 6f 87 bd e0 de 50 3c
       -0.0024120063 0.12403275 -0.06612997 0.01274845
000130 9c 05 84 3d a6 4c ce bd 80 fd 5c 3b 84 c4 a9 3d
       0.064463824 -0.10073213 0.0033720434 0.082894355
000140 46 24 9e 3d f8 0d f8 3c 78 d7 64 bd 0c e2 7e bd
       0.07721762 0.030280098 -0.05586955 -0.062227294
000150 aa 33 ee 3d 20 1f 2e 3c 54 f8 37 3d a8 1d 9c bd
       0.11630948 0.010627538 0.04491456 -0.07622844
000160 e8 aa cb 3d 46 8f ba bd 30 86 6d 3c ae 21 cb bd
       0.09944707 -0.091093585 0.014497325 -0.09918533
000170 60 e9 32 bc 70 bc da bc c4 67 b1 3d a0 5a 20 3c
       -0.010919899 -0.026701182 0.0866237 0.009787232
000180 44 0b e8 3d e8 cd ef 3d 74 5a 8f bd 50 40 02 3d
       0.11330274 0.117091954 -0.069996744 0.031799614
000190 a0 10 24 bc f2 ff eb 3d 98 d6 da bc 66 44 ca 3d
       -0.010013729 0.11523427 -0.026713654 0.09876327
0001a0 d4 5c 28 3d 50 22 72 bd 5c 0b d1 bd 32 ae b3 3d
       0.041104153 -0.059114754 -0.10207245 0.087734595
0001b0 80 19 1b 3b 22 3a 9e 3d 04 9a e4 3d 98 a5 d2 bc
       0.0023666322 0.07725932 0.11162189 -0.025713727
0001c0 0c 88 bc 3d 80 7f 35 bb 18 2a 9e 3d aa 72 ec bd
       0.092056364 -0.0027694404 0.077228725 -0.11545308
0001d0 e8 6e 56 3d ea 18 ac bd 30 06 22 bc 16 8d b6 3d
       0.052351862 -0.084031895 -0.0098891705 0.08913629
0001e0 42 03 9f 3d 24 33 eb bd c6 72 f9 bd 34 f2 8c bd
       0.07764293 -0.11484364 -0.121800944 -0.06882134
0001f0 3a 82 bf 3d 9c 8e c3 3d 80 b1 ae 3c 24 94 1e 3d
       0.093510106 0.09548685 0.021324873 0.038715497
000200 48 ed a0 bd 1c 10 23 bd a8 a6 20 bd 40 9d 79 bd
       -0.07857758 -0.039810285 -0.039221436 -0.06094098
000210 3a 68 a9 3d d8 ec 5e bd 08 91 cb bc 30 03 a2 3d
       0.08271833 -0.05442509 -0.02484943 0.07910764
000220 fa e1 d2 bd 70 2a a1 bc e8 54 8a 3c 5a f7 85 bd
       -0.10297008 -0.019673556 0.01688619 -0.06541319
000230 68 c4 c0 3c c4 5d c3 bd 56 1b d2 3d 38 72 fb bc
       0.023531154 -0.09539369 0.1025912 -0.030694112
000240 a4 7b 4c 3d 80 57 87 3c 00 0e 7c 3a b4 de 23 bd
       0.0499226 0.016521215 0.0009615123 -0.040007308
000250 d4 b6 30 3d a4 68 34 3d 80 f5 70 bd 18 a4 97 bd
       0.04314311 0.044045106 -0.058827877 -0.07404345
000260 34 43 6e bd e0 61 ec 3b 40 0a 68 bb 4c c7 1d bd
       -0.05816956 0.007213816 -0.00354065 -0.038520142
000270 a4 f8 c6 3d d0 ab 45 3c 9a 04 95 bd 36 93 ca 3d
       0.09715393 0.012064889 -0.07276268 0.098913595
000280 bc 5d 35 3d 9a 62 b2 3d 74 66 ef 3d 98 ba 89 3d
       0.044278845 0.08710213 0.11689463 0.06725043
000290 38 d2 c7 bd 5c 10 30 3d 20 bd 8b 3c e2 09 91 3d
       -0.09756893 0.04298435 0.017057955 0.07081963
0002a0 54 01 62 bd 80 dc 2e bb 08 c5 74 3d 50 f5 94 3c
       -0.055177048 -0.0026681721 0.059758216 0.01818338
0002b0 3a ba 86 bd c6 85 94 bd 86 8a b5 3d ba 62 d1 3d
       -0.06578489 -0.07252078 0.08864312 0.10223909
0002c0 08 8b 85 3d 70 f7 e5 bc 10 58 52 3d 8a 80 c1 3d
       0.06520659 -0.028072089 0.051353514 0.09448345
0002d0 3e 9e cb bd a0 be b9 bd 80 2e 45 3c 16 4b fb bd
       -0.09942292 -0.09069562 0.012035012 -0.12270181
0002e0 48 0b b8 3c f8 da bf bd b0 5c 55 3c 48 b4 46 3d
       0.022466317 -0.09367937 0.013022587 0.048511773
0002f0 58 b1 25 3d fc fa 77 3d b8 e7 fd 3c 80 9f 22 bc
       0.04045233 0.06054209 0.030994281 -0.009925723
000300 64 c3 c6 bd d4 d0 7a 3d 66 80 b2 bd 00 71 19 3d
       -0.097052366 0.06123431 -0.08715896 0.03746128
000310 8e 4c da 3d 32 8a d5 bd c2 db 84 3d 36 f8 e0 bd
       0.10659133 -0.10426749 0.06487228 -0.109848425
000320 90 e3 7d 3c 28 b1 e8 bd c0 03 79 3d 14 23 ee 3d
       0.01549615 -0.11361915 0.060794592 0.11627784
000330 90 cb 58 3d e0 17 f0 bb 16 d7 ec bd 90 b7 16 3c
       0.052928507 -0.007327065 -0.11564462 0.009199038
000340 38 45 f0 bc 80 6e 2f bc 5e f2 fa bd 3c 21 20 3d
       -0.029329881 -0.010707498 -0.12253259 0.039094195
000350 24 7e a3 3d 5c ef bf bd 36 9e 8c 3d 30 ca 68 bc
       0.07983044 -0.09371826 0.06866114 -0.0142083615
000360 7c 42 80 3d 90 60 b0 3d da a4 ae bd 3c 77 ab 3d
       0.06262681 0.08612168 -0.08527537 0.083723515
000370 04 e2 78 bd 56 1f 91 bd 30 d5 28 3c 8c f7 4a 3d
       -0.06076242 -0.07086055 0.010304734 0.049552485
000380 e0 85 f7 bb 68 28 c7 bd 3c f5 74 bd 4c 34 ae 3d
       -0.007553801 -0.09724504 -0.059804186 0.085060686
000390 76 7d c1 bd f0 27 87 bd d0 9e e8 3c 8c 1a af 3d
       -0.09447758 -0.06599414 0.02839604 0.08549985
0003a0 a8 b2 6a 3d f0 b2 c0 3d cc 9d 44 bd 64 9c 45 3d
       0.057299286 0.094091296 -0.04800205 0.04824485
0003b0 f6 a9 f5 3d b0 ca 70 bd 80 a1 5c bb a8 95 e4 bc
       0.11995308 -0.058787048 -0.0033665597 -0.027903393
0003c0 a8 11 ee bc 52 7f 86 bd 4c b0 17 bd 9c ad ef 3d
       -0.029061154 -0.06567253 -0.037033364 0.11703035
0003d0 00 4d 66 bc f4 b0 8d 3d 80 58 bc bb a4 51 2f bd
       -0.014056444 0.06918517 -0.0057478547 -0.042802468
0003e0 ee 7a a8 3d 9c 44 25 bd 18 56 5d bd 7e 1c 90 3d
       0.08226572 -0.040348634 -0.054037184 0.070366845
0003f0 c8 15 e8 3c 3a 86 ee bd 08 75 44 3d 2c b6 be bd
       0.028330699 -0.116466954 0.047963172 -0.0931209

bias f4 [128]
000000 00 7a b4 3a 42 6d b8 bd 58 47 6b bd 80 91 43 bc
       0.0013769269 -0.09005214 -0.057441086 -0.011936545
000010 1a d7 c6 3d 06 97 c1 3d e2 4f cc 3d 80 13 f8 bc
       0.09708996 0.094526336 0.09976174 -0.030282736
000020 26 87 ff 3d 48 9f da 3d c0 92 39 bc 20 66 4f bd
       0.124769494 0.10674912 -0.011326492 -0.050634503
000030 34 47 f5 bd b4 90 39 bd a0 a1 fa 3c b8 4e 80 bd
       -0.119764715 -0.045304015 0.030594647 -0.062650144
000040 7c 37 1f 3d 98 df 93 3c d4 4a 7c bd a0 ef 9d 3c
       0.038871273 0.018050954 -0.0615948 0.019279301
000050 08 f3 95 bc 8c 3a 80 bd b4 74 7c bd b8 34 4f bd
       -0.018304363 -0.06261167 -0.061634734 -0.050587386
000060 a0 cd 9a bc 40 45 01 3d 10 dc bb bd 6e ed e7 bd
       -0.018896878 0.031560183 -0.09172833 -0.11324583
000070 48 b6 51 bd d0 52 f4 bd 6a 64 85 bd 88 53 5e bd
       -0.051199228 -0.11929858 -0.06513293 -0.05427888
000080 24 53 cf 3d b0 44 82 3d cc f5 f5 bd dc 46 57 3d
       0.1012328 0.06360757 -0.12009773 0.05255781
000090 a8 a7 d0 bd e0 1b 74 bd 5c ad 3c 3d 28 11 bb 3c
       -0.10188228 -0.059596896 0.046063766 0.02283533
0000a0 1e 24 cc 3d 24 2d 33 bd 78 12 70 3d 98 dc c9 3d
       0.09967826 -0.04374422 0.058611363 0.09856528
0000b0 1e 70 bf 3d 9e e6 d3 3d f8 3d 68 bd f4 dd ff 3d
       0.093475565 0.10346721 -0.056699723 0.12493506
0000c0 6c 2c 13 bd dc 3f 87 3d 8c 60 9f bd e8 fd 92 3c
       -0.035931036 0.06603977 -0.07782087 0.017943338
0000d0 00 65 f9 3b ee b5 d6 bd ac 41 a1 3d 10 05 2b 3c
       0.007610917 -0.10483919 0.07873854 0.010438219
0000e0 e2 35 dc bd 76 fe 91 3d fa 4e cd 3d 52 9a e4 3d
       -0.10752465 0.07128613 0.10024829 0.11162247
0000f0 40 69 f3 bd d0 85 74 bd de 53 aa bd e2 7b 8c bd
       -0.11885309 -0.059697926 -0.08316778 -0.06859566
000100 98 1c 06 bd d0 c8 2f bc c0 0b d6 3b fc 93 fe 3d
       -0.032742113 -0.01072903 0.0065321624 0.124305695
000110 80 3d 1a bb d8 f7 e3 bc c0 39 1e 3d 3c 25 3a bd
       -0.0023535192 -0.027828142 0.038629293 -0.045445666
000120 08 aa cc bd 70 7b 5b 3d f0 9c a8 3c 0c 56 da 3d
       -0.099933684 0.053584516 0.020582646 0.106609434
000130 70 b3 53 3d 50 d9 6d 3d 3c 98 a4 3d 4c 84 04 3d
       0.051684797 0.058068573 0.08036849 0.03235273
000140 60 f1 79 3c c8 3c 24 bd c8 2a 6b 3d 20 01 58 bc
       0.015255302 -0.040097028 0.057413846 -0.013183862
000150 52 23 9a bd 40 94 65 3d da 5c ad bd 58 bc 8f bc
       -0.07526268 0.056049585 -0.08464976 -0.017545864
000160 40 07 78 3c c0 23 fe 3b e6 1b ba bd 16 ad dd bd
       0.015138447 0.0077557266 -0.090873525 -0.10824029
000170 fc b1 3e bd 80 95 bc bb e4 f0 ec bd 40 e5 1e bb
       -0.046556458 -0.0057551265 -0.11569384 -0.002424553
000180 70 d8 8b bc 06 12 9c 3d 34 4a 43 bd e0 97 18 3d
       -0.017070979 0.07620625 -0.047678187 0.037254214
000190 c8 f1 69 bd 48 18 c0 bd 2e 9b e6 bd 40 85 49 bc
       -0.057115346 -0.09379631 -0.11260067 -0.012299836
0001a0 60 c6 75 3c d6 82 fa bd f8 43 43 bd 12 50 d0 3d
       0.01500091 -0.12231986 -0.047672242 0.10171522
0001b0 74 c8 39 bd c8 4f af 3d 04 ae a0 bd 12 fe 91 bd
       -0.045357183 0.08560139 -0.07845691 -0.07128538
0001c0 a0 c7 b8 3b c0 86 db 3c 10 b6 e6 bd f8 53 40 bd
       0.0056390315 0.026797652 -0.112651944 -0.04695508
0001d0 60 b0 79 bc b2 2c b8 bd 1c 8f 1b bd e0 27 f2 3d
       -0.015239805 -0.089929 -0.037978277 0.11824012
0001e0 24 83 25 bd 1a c0 97 bd b0 fe 9d 3d 56 3e d2 3d
       -0.04040827 -0.07409687 0.077145934 0.10265796
0001f0 a0 57 b6 3c 62 eb a9 bd f6 8c cd 3d 38 89 ba bd
       0.02225858 -0.08296849 0.10036652 -0.09108204

weight f4 [10, 128]
000000 77 9b 67 3d 27 30 2c 3c 7f ac 34 bd 53 d3 9d 3d
       0.056544747 0.010509527 -0.044109818 0.077063225
000010 73 37 53 3d 1d c2 8f 3d c3 19 64 bc 67 ed 7e 3c
       0.051566552 0.07019446 -0.013922158 0.015559531
000020 3b 72 b0 3d 44 11 66 bd 9c e0 e9 bc 50 ee 68 3a
       0.08615538 -0.05616881 -0.028549485 0.0008885609
000030 68 c2 42 3c 0b 9a 19 3d 61 a1 9b bc 6b be 75 bd
       0.01188717 0.037500422 -0.01899785 -0.05999605
000040 75 a1 10 bd 0c 23 c1 3c 5d e0 aa 3b 3e d8 b2 3d
       -0.035310227 0.023576282 0.0052147345 0.08732651
000050 2b 51 5a bd 8b 17 e1 bc 80 07 4a 3d c0 16 99 3c
       -0.053300064 -0.027477046 0.04932356 0.018687606
000060 b9 5c 81 3d 14 be 37 bd 21 da 7b bd 96 8e 90 bd
       0.063165136 -0.044859007 -0.06148732 -0.07058446
000070 d9 78 b9 3c 7a eb c4 bc ec c9 8f bd 96 5c 31 bd
       0.022640632 -0.024038065 -0.070209354 -0.043301187
000080 73 48 ed bc 8d 01 60 bd 90 ae 98 bc 74 08 82 3d
       -0.02896521 -0.05468898 -0.018637925 0.063492686
000090 03 8e 0c bb 53 31 49 3d 55 a6 85 3c 12 e0 34 bd
       -0.002144695 0.049119305 0.016314665 -0.044159003
0000a0 d5 72 6b 3d ad f5 8e bd 73 98 85 bd 8b a6 db ba
       0.05748256 -0.06980453 -0.06523218 -0.0016758008
0000b0 e4 ce 60 bc eb 3f 02 bd dd 0e 87 bd cb 42 36 bd
       -0.013721202 -0.03179924 -0.06594632 -0.044497292
0000c0 3e 43 4a 3d 7d 07 f9 bc e9 8d ad 3d de 8c 1c bb
       0.049380533 -0.030399079 0.08474333 -0.0023887674
0000d0 bf 5c d6 3c 4e 4c 30 3d 0f b5 93 bd 07 35 a7 3d
       0.026167272 0.04304152 -0.072122686 0.08164411
0000e0 9e d6 26 3c fc e2 52 bd 89 e8 c0 3c 02 49 8b bb
       0.010183005 -0.051486 0.023548381 -0.0042506466
0000f0 43 b7 89 3d 6e 58 b1 bc aa eb b2 3d a5 dc 49 bd
       0.067244075 -0.021648612 0.087363556 -0.04928269
000100 af 1d 3a bd 92 17 b2 bd 56 18 80 bd 1e a5 b0 bd
       -0.045438465 -0.08695902 -0.06254642 -0.086252436
000110 58 e6 ef bc 21 33 95 bd c3 fb 97 3d f5 c2 b2 bc
       -0.029284641 -0.07285143 0.074210666 -0.021821478
000120 8e c5 ab 39 9c e9 87 bc fe 35 6c bd ed 8e b9 3c
       0.0003276285 -0.016590886 -0.05766868 0.02265116
000130 90 92 3d 3d 7b 3e 48 bd b8 fb 48 3d c6 54 f2 bb
       0.04628235 -0.04888771 0.049068183 -0.0073953597
000140 c1 fa 94 3d f4 3f 45 bd 64 3f 3a 3d 2d 32 ed 3b
       0.0727439 -0.048156694 0.04547061 0.0072386474
000150 64 94 79 3d 86 e4 90 bc 8c 54 ad 3d fa 59 01 bd
       0.060932532 -0.017687093 0.08463392 -0.03157995
000160 23 ae a4 bd fc 25 b4 bd f4 79 8f 38 35 07 5a bc
       -0.080410264 -0.087963074 6.841487e-05 -0.013307382
000170 bf a1 21 bd 78 91 d6 b9 dc ec 7a bd 7e 20 68 3d
       -0.039460894 -0.00040925643 -0.061261043 0.056671612
000180 c0 90 1b 3d cf 69 84 bd 55 12 aa 3c b6 b8 37 3d
       0.03797984 -0.06465494 0.020760695 0.04485389
000190 e7 14 22 bd 2d 26 ae bd 07 a5 a3 bc c9 1f 9e bc
       -0.039570715 -0.08503375 -0.019976152 -0.019302266
0001a0 ee c2 b4 3d e7 40 9f 3c 3c 70 eb 3c 9c 9a 94 3b
       0.088262424 0.019440128 0.028740041 0.0045350324
0001b0 82 0e 20 bd 01 70 d8 3b 37 a9 8b 3d 04 12 c9 bb
       -0.039076336 0.006605149 0.068193845 -0.006136181
0001c0 eb 3c 7d bd 0a 3f 75 3c 73 45 fd ba c9 41 0f bc
       -0.061825674 0.014968643 -0.0019323066 -0.008743712
0001d0 2b b8 09 3d 79 24 00 bd 14 98 96 3c e4 fa 3f bd
       0.033622902 -0.031284783 0.018383063 -0.046870127
0001e0 3f bc 20 bd d5 f8 94 bb b7 ca b0 3d b4 98 97 3d
       -0.039242025 -0.0045462647 0.08632415 0.07402173
0001f0 1e 22 a7 3d 5d c7 04 bd be 35 1b 3b 0f 48 f8 bb
       0.08160804 -0.03241669 0.0023683156 -0.0075769494
000200 3c 3d 9a 3d df e4 b3 bc f3 81 3e 3d 1c 17 10 3c
       0.07531211 -0.02195972 0.046510648 0.008794572
000210 84 79 9c bd 16 c3 11 bc b5 0f 18 bd 1b fe 94 bd
       -0.07640365 -0.00889661 -0.037124354 -0.07275029
000220 34 2c 72 3d 62 94 98 3d b6 90 86 3d 66 2c bc 3c
       0.059124187 0.07450177 0.0657057 0.02297039
000230 42 23 85 bd f9 af 88 bd c4 5e ac bd 7d 49 f1 3b
       -0.065008655 -0.06674189 -0.084165126 0.007363497
000240 06 85 05 3d b3 5f 7d bc e8 df fd bc cf 66 85 3d
       0.032597564 -0.015464711 -0.030990556 0.0651375
000250 42 04 2e bc 49 62 cf bb c4 73 35 bd 69 f4 12 bd
       -0.010621132 -0.006328855 -0.044299856 -0.03587762
000260 d3 0c ff bb ac ea 8e bd f8 19 89 3d f7 8e 86 3d
       -0.007783511 -0.06978354 0.06694406 0.06570237
000270 9d 5d 11 3c 35 4c d8 3b d0 6d aa 3c 4b 2f ef 3c
       0.008872417 0.0066008815 0.020804316 0.029197356
000280 6e a9 74 bd a1 ac 12 bd 29 db 24 3d d5 2f 2c bd
       -0.059731893 -0.035809163 0.04024807 -0.042037804
000290 a2 0b 74 bd 11 84 dc bc 54 83 bc 3a a3 2f 71 bc
       -0.059581406 -0.026918443 0.00143824 -0.01472083
0002a0 6d c8 a4 bd 30 f6 4b bd 93 32 a3 3d 3c 82 8a 3d
       -0.08046041 -0.04979533 0.07968631 0.067631215
0002b0 95 e1 45 3d eb 3e 83 3d 6f cc a6 bc 73 59 b1 bd
       0.048310835 0.06408485 -0.020361153 -0.08659639
0002c0 69 2f a6 bc 3c f7 a0 bd c3 f7 96 bd cf c6 56 3c
       -0.020286279 -0.07859656 -0.073714755 0.013108923
0002d0 81 b0 47 3d 04 2c b4 bd 69 ab 02 bc 7c 5c 79 3d
       0.04875231 -0.08797458 -0.007975438 0.060879216
0002e0 c7 3a 0b 3b 5c 2a 8f bd 8f 3b a7 3c 3e 4a 91 bd
       0.002124475 -0.06990501 0.020414142 -0.07094239
0002f0 59 58 6f 3d 7c 9c c7 3b 1b b0 6f 3d f0 96 88 3c
       0.058433864 0.0060916524 0.058517557 0.016673535
000300 68 1a db bc 12 4f a7 3d 3b 47 3d bd 04 a7 38 bc
       -0.02674599 0.08169378 -0.04621051 -0.011270288
000310 81 3d 09 3d 5a 87 21 3d 1f d1 73 3d 66 ae fb 3c
       0.03350592 0.039435722 0.059525605 0.030722808
000320 28 10 00 bd 4f 1c 13 bd 14 e2 02 3c b0 87 28 3d
       -0.031265408 -0.03591567 0.007988472 0.041145027
000330 0a 61 d9 3b 63 eb 48 3c 94 ed 2e 3d 3c 2d e3 bb
       0.0066338824 0.012263152 0.04270704 -0.0069328826
000340 ec 3c 9f bd 3f 18 10 bd 1e de c6 bc ee 01 14 bd
       -0.07775292 -0.035179373 -0.024275836 -0.036134653
000350 c3 03 cd 3b f8 1d 86 bc e9 2b 6f 3d 79 6e ab 3c
       0.006256552 -0.016371712 0.058391485 0.0209267
000360 88 82 89 3d ba 86 f8 3c ee 48 b3 3c c5 0a af 39
       0.0671435 0.03033768 0.021885362 0.00033386625
000370 97 59 98 3d 06 f6 0e bd 41 8d 83 bd 7f 8a bf 3b
       0.07438963 -0.034902595 -0.064234264 0.0058453674
000380 75 ad 5e bd d0 07 52 bd fb 58 14 bc 54 d3 84 3d
       -0.05436464 -0.05127698 -0.009054418 0.0648562
000390 c4 9e 53 bd 8d cb 98 bd 76 df 5a bd 3a d9 4e bd
       -0.051665083 -0.07460699 -0.053435765 -0.050500132
0003a0 76 36 ae bd 90 86 91 3c 57 38 9f 3d 7d bd a2 3d
       -0.08506481 0.01776436 0.07774418 0.07946298
0003b0 68 cf 3f bd b5 b0 3e 3b 95 2a 3f 3d de 21 0c 3c
       -0.046828657 0.0029097025 0.04667147 0.008552996
0003c0 c5 9c ae bc 69 03 ea bb 56 83 08 3a 96 0d 3a 3d
       -0.021314988 -0.00714152 0.0005207559 0.045423113
0003d0 3c 69 83 3d a1 5d 88 3d b8 f4 2e 3d 5f 34 b9 bc
       0.06416556 0.06658483 0.04271385 -0.02260798
0003e0 f7 e3 72 3c 25 88 9b bd 22 34 9d bd bc 92 ff 3b
       0.014824859 -0.07594327 -0.07675959 0.0077994745
0003f0 09 97 92 bd 41 71 97 bd 45 da f1 b9 4a bd 08 bd
       -0.07157714 -0.07394648 -0.00046129726 -0.033383645

bias f4 [10]
000000 93 6c 61 bc f5 41 ad 3d 5e b0 1a bd 6d 16 14 bc
       -0.013758796 0.08459846 -0.037765853 -0.00903855
000010 e2 87 b1 3d 90 b3 ae bd 0e 1d 6c bd c1 50 35 bd
       0.08668496 -0.085303426 -0.057644896 -0.044266466
000020 52 2b 9d bd 84 95 8e 3c
       -0.07674278 0.017405279
